…
The plot (2) and (4) are similar with training loss drops sharply on the second epoch and val loss not changing very much. The plot (3) has decreasing training loss, but the val loss first decreases, and then increases. This indicates overfitting when the epoch increases. In comparison, the loss of (2) and (4) don't change very much while epoch increases.

The batch normalization layer makes training faster, but the dropout layer doesn't make a lot of changes on the training.

Here is a summary of the first model:

_________________________________________________________________
Layer (type)                 Output Shape              Param #   
=================================================================
conv2d_1 (Conv2D)            (None, 28, 28, 32)        2432      
_________________________________________________________________
max_pooling2d_1 (MaxPooling2 (None, 14, 14, 32)        0         
_________________________________________________________________
conv2d_2 (Conv2D)            (None, 10, 10, 64)        51264     
_________________________________________________________________
flatten_1 (Flatten)          (None, 6400)              0         
_________________________________________________________________
dense_1 (Dense)              (None, 1000)              6401000   
_________________________________________________________________
dense_2 (Dense)              (None, 10)                10010     
=================================================================
Total params: 6,464,706
Trainable params: 6,464,706
Non-trainable params: 0
_________________________________________________________________
None